models/model_250_epochs.pt (torch, 661063 bytes, 10 tensors)

0.weight f4 [32, 1, 3, 3]
0.55059105 0.2139033 0.3570265 0.07862309 -0.07080475 0.08397581 -0.5435856 -0.46436572
-0.31779855 0.5441966 0.17795232 0.32446668 0.0063831117 -0.33669674 -0.6035106 0.023230506
-0.6142047 -0.71584314 -0.6194349 -0.83980304 -0.5895533 -0.039618403 0.00885324 0.21128206
0.69110996 0.72898805 0.43468964 0.48660445 -0.089602865 -0.8856693 0.7182021 -0.2604849
-0.7431464 0.6957885 0.66069156 -0.41997084 -0.276452 -0.50192416 0.76773405 -0.68423235
-0.59073246 0.32230726 -0.5812686 -0.13633822 0.6547609 0.0017488003 0.094751954 -0.09653573
-0.16045603 0.041671664 0.19786134 -0.09693599 -0.296383 -0.20576295 -0.32505566 -0.47873712
-0.3823052 0.012607441 -0.43439418 -0.3432255 -0.18183762 0.021197759 0.17905274 0.4147589
0.6261563 0.65154827 -0.08234185 -0.22272444 0.28716394 -0.7327033 -0.75767 -0.3145476
0.25223657 -0.18368858 -1.1143258 -0.12510465 -0.6742752 -0.68771833 0.86604995 0.32820347
0.47127897 0.27170405 -0.69968706 -0.93749046 0.57379663 0.30363715 -0.54301786 0.7047787
0.2655244 -0.2488291 0.22791143 0.21528126 0.45086625 0.0399886 0.34086967 0.34637997
-1.0216719 -0.7345607 0.114892334 0.380267 -0.4485036 -1.0699582 0.64562106 0.13417491
-0.34794575 0.548485 0.7017672 -0.048686497 0.69302106 -0.03516212 -0.2563744 0.15041003
-0.40819082 -0.70302784 0.0384894 -0.3234514 -0.09222815 -0.33485207 0.38519454 0.14982627
-0.68981457 0.41951385 0.4100387 -0.874907 -0.17425567 0.33790165 0.568806 -0.32864082
-0.6461086 0.75385106 0.06940843 -0.31612346 -0.08646787 0.23881009 -0.41387102 0.25266927
0.3306414 -0.38232362 0.8229098 -0.03483496 -0.77107775 0.75962967 -0.23128572 -0.38748354
-0.12867142 0.59097826 0.48516458 -0.55911684 -0.22260465 0.03037399 -0.14394966 -0.4102707
0.2187297 0.008493227 0.021823049 -0.2552816 -0.17459425 0.61312276 0.013715778 -0.6257379
0.39225823 -0.0343815 0.2433301 -0.25381982 -0.055360198 0.11901932 -0.2886917 0.03647915
-0.03333342 -0.12995166 -0.015892321 0.24052794 0.80204564 -0.20836774 -0.26543993 0.21539375
-0.2586521 -1.1395226 0.18796708 0.33967888 0.022449559 0.35903174 -0.50502604 0.2121327
0.29814833 0.27588615 -0.0041490053 0.2355831 0.42165166 0.36322165 0.6441923 0.25728896
0.30366707 -0.14523134 -0.5261098 0.47840285 -0.5918502 -0.6047528 -0.5611142 -0.6789351
-0.57944953 0.07775451 -0.54366714 0.021687703 0.5054408 0.49717736 0.42048073 -0.63567317
0.12992601 0.891006 -0.96409637 -0.16548401 0.72175616 -0.18875374 0.37322316 0.13184062
-0.16846661 0.1352144 0.26903147 -0.2388895 -0.26972428 -0.16917722 -0.15457292 0.004291279
0.10347379 -0.455001 -0.5820214 -0.19444647 -0.6765929 -0.35487723 0.3817885 -0.18464065
-0.018080115 0.99400294 0.5687404 0.6663673 0.015310432 0.20446528 0.2664027 -0.4004773
-0.25269237 -0.22633195 -0.20260304 -0.4387449 0.12567401 0.18614061 0.3537075 -0.0049044997
-0.5203662 -0.28733894 -0.4767985 -0.5546566 -0.83001584 -0.41443914 0.29982206 -0.15526487
00000000: 89f3 0c3f 7709 5b3e 2dcc b63e 2505 a13d
00000010: 1502 91bd 82fb ab3d 6d28 0bbf 58c1 edbe
00000020: 7eb6 a2be 7850 0b3f 2239 363e 7f20 a63e
00000030: 6c29 d13b 8463 acbe ac7f 1abf e74d be3c
00000040: 853c 1dbf 7f41 37bf 4993 1ebf 55fd 56bf
00000050: f7ec 16bf e846 22bd 2e0d 113c 535a 583e
00000060: 95ec 303f f69e 3a3f a48f de3e 3824 f93e
00000070: b581 b7bd 39bb 62bf 18dc 373f 475e 85be
00000080: d83e 3ebf 321f 323f 1523 293f 6b06 d7be
00000090: 1e8b 8dbe 1a7e 00bf 388a 443f da29 2fbf
000000a0: 3e3a 17bf 7505 a53e 05ce 14bf 3f9c 0bbe
000000b0: 699e 273f 0038 e53a 500d c23d 86b4 c5bd
000000c0: 964e 24be e8af 2a3d 2a9c 4a3e 6086 c6bd
000000d0: 83bf 97be 86b3 52be b26d a6be 081d f5be
000000e0: 82bd c3be 718f 4e3c ea68 debe 41bb afbe
000000f0: a433 3abe eca6 ad3c 9a59 373e 475b d43e
00000100: c74b 203f decb 263f d8a2 a8bd e011 64be
00000110: 2707 933e 7292 3bbf a9f6 41bf 620c a1be
00000120: 2725 813e dc18 3cbe 3aa2 8ebf 6f1b 00be
00000130: 4d9d 2cbf 4f0e 30bf 73b5 5d3f 490a a83e
00000140: 7a4b f13e cb1c 8b3e b11e 33bf 60ff 6fbf
00000150: 56e4 123f 5476 9b3e 3803 0bbf 606c 343f
00000160: d0f2 873e 0ecd 7ebe 9d61 693e b172 5c3e
00000170: f1d7 e63e 16cb 233d 7886 ae3e b758 b13e
00000180: 25c6 82bf 2c0c 3cbf ac4c eb3d 5bb2 c23e
00000190: 44a2 e5be 64f4 88bf 6c47 253f 2665 093e
000001a0: f225 b2be 8369 0c3f 04a7 333f 7e6b 47bd
000001b0: d469 313f 2806 10bd 8143 83be 1605 1a3e
000001c0: 63fe d0be a2f9 33bf 10a7 1d3d 6c9b a5be
000001d0: 1de2 bcbd bb71 abbe 3838 c53e 0f6c 193e
000001e0: b097 30bf 85ca d63e 98f0 d13e e8f9 5fbf
000001f0: 1470 32be 7201 ad3e 459d 113f 9c43 a8be
00000200: 6067 25bf 62fc 403f 0226 8e3d efda a1be
00000210: 1116 b1bd a28a 743e e7e6 d3be de5d 813e
00000220: d449 a93e ecbf c3be 37aa 523f 1aaf 0ebd
00000230: 5a65 45bf 1777 423f 2ad6 6cbe 3e64 c6be
00000240: 71c2 03be 5a4a 173f 7e67 f83e 4822 0fbf
00000250: 79f2 63be e0d2 f83c 8a67 13be 000f d2be
00000260: aefa 5f3e 2d27 0b3c 40c6 b23c 45b4 82be
00000270: d6c8 32be 9df5 1c3f 24b8 603c 5c30 20bf
00000280: 12d6 c83e 9ed3 0cbd 872b 793e acf4 81be
00000290: 60c1 62bd 67c0 f33d 66cf 93be 296b 153d
000002a0: a088 08bd 0c12 05be 9d30 82bc f54c 763e
000002b0: dd52 4d3f 5a5e 55be bee7 87be 2e90 5c3e
000002c0: 0c6e 84be e0db 91bf 717a 403e 64ea ad3e
000002d0: 23e8 b73c 02d3 b73e 6349 01bf 5139 593e
000002e0: e6a6 983e f340 8d3e 61f4 87bb b23c 713e
000002f0: bae2 d73e 30f8 b93e c9e9 243f 61bb 833e
00000300: 407a 9b3e 86b7 14be 22af 06bf 38f1 f43e
00000310: 7f83 17bf 14d1 1abf 2ea5 0fbf b1ce 2dbf
00000320: ce56 14bf c23d 9f3d c52d 0bbf 69aa b13c
00000330: 9164 013f 088e fe3e 4049 d73e 7abb 22bf
00000340: 530b 053e f818 643f 05cf 76bf a474 29be
00000350: 03c5 383f a948 41be 1b17 bf3e 3a01 073e
00000360: 8382 2cbe a575 0a3e 7ebe 893e 739f 74be
00000370: 4d19 8abe cb3c 2dbe 5d48 1ebe db9d 8c3b
00000380: 11ea d33d e4f5 e8be 5bff 14bf fa1c 47be
00000390: 3135 2dbf 78b2 b5be c879 c33e 7012 3dbe
000003a0: c01c 94bc fa76 7e3f f998 113f 0c97 2a3f
000003b0: 9bd8 7a3c 595f 513e ef65 883e 5c0b cdbe
000003c0: e560 81be 90c3 67be 2c77 4fbe 2ca3 e0be
000003d0: b0b0 003e a59b 3e3e 2619 b53e edb5 a0bb
000003e0: b836 05bf 171e 93be ef1e f4be fafd 0dbf
000003f0: eb7b 54bf 5e31 d4be 4782 993e c1fd 1ebe

0.bias f4 [32]
0.04246758 0.49948177 -0.08017855 -0.07547009 0.3639571 -0.23781204 0.24900575 -0.09820047
0.37752813 0.086065434 -0.07788161 -0.17310783 0.4121698 -0.08128936 -0.027946666 -0.10626616
-0.09293498 -0.037010632 -0.22619808 -0.15105155 -0.51194453 -0.1505325 0.3311491 0.027183868
-0.2964464 0.31007257 -0.08227388 -0.107997954 -0.01260017 -0.14900407 0.062890254 -0.27786356
00000000: 7cf2 2d3d 13bc ff3e a734 a4bd 1090 9abd
00000010: 9658 ba3e 0085 73be 5dfb 7e3e 541d c9bd
00000020: 5e4b c13e 1343 b03d 6580 9fbd 2e43 31be
00000030: ec07 d33e 097b a6bd 68f0 e4bc 13a2 d9bd
00000040: b254 bebd 7698 17bd 78a0 67be 42ad 1abe
00000050: cc0e 03bf 3125 1abe 608c a93e b4b0 de3c
00000060: d3c7 97be d5c1 9e3e 357f a8bd 082e ddbd
00000070: f270 4ebc 8694 18be 9bcc 803d 2244 8ebe

3.weight f4 [64, 32, 3, 3]
-0.037875105 -0.056714553 -0.039252494 0.017828489 -0.027307268 0.025958529 0.025465103 0.038310483
-0.037453618 0.024560867 0.008621184 0.005355508 0.030585324 -0.035530474 -0.025073405 -0.02534184
-0.06600448 -0.034723178 -0.045028783 -0.020896988 -0.0050339117 0.008669183 0.053829074 0.0120572625
0.03990564 0.050152678 0.022382867 -0.01905758 0.039737858 -0.05021515 -0.044638686 -0.050497185
0.01000414 -0.03594406 -0.015648855 -0.036648564 -0.027222887 0.012839088 -0.06367719 -0.0044472464
-0.05041208 0.015391018 0.017734682 -0.0025170592 -0.065806665 -0.012274202 0.0067758746 0.031657953
0.051344376 0.011802729 0.05525386 -0.010922939 -0.019140318 -0.03962501 0.0064780116 -0.032911476
0.027922276 0.012805966 0.037163377 -0.023306904 -0.011917807 -0.013909729 0.028033407 -0.010481741
0.04520063 -0.02744805 0.013711429 -0.044223785 -0.044691466 -0.07507421 0.00044526812 0.008402319
0.02478411 -0.031593718 -0.048941486 -0.0048093805 0.035818994 0.03650902 0.0040082373 -0.05929932
-0.05939049 -0.05410839 -0.024363777 -0.017749155 0.013051157 -0.072385915 -0.03343953 -0.01993104
-0.05182472 0.014063361 -0.024921216 0.030281054 0.04777533 -0.049631957 -0.012958133 -0.003928183
0.045369696 0.027886307 -0.040798664 0.047121044 0.03227736 -0.010243591 0.0037822307 -0.0013907128
-0.012318627 -0.035934485 -0.03437278 -0.040132415 -0.05503818 0.025908714 0.02021257 -0.07341134
0.035781875 0.034517337 -0.03877594 0.021955812 -0.041936737 -0.0461925 0.021728678 0.0007728413
0.03388149 -0.06509233 0.033669353 0.0088476315 0.007427296 -0.059451662 -0.0008730127 -0.05904444
-0.029699575 -0.065741085 0.03169451 -0.046637144 -0.0232295 -0.046092708 -0.008958525 0.026683895
-0.04292702 0.020521423 0.016227048 -0.051039316 -0.036798555 0.025116336 0.009372237 -0.014671102
0.0018899876 -0.021859072 -0.053087875 -0.04010603 -0.057246175 -0.011032662 -0.019081779 -0.061017957
-0.06688933 0.04196205 -0.027402814 0.0013387586 -0.017777178 0.02869773 0.028771967 0.03505154
0.0049415957 -0.032608844 -0.025003511 0.029416349 0.0016340315 -0.028254932 0.012040127 0.041852113
0.028883513 0.05291808 0.0128724985 -0.057586465 -0.044174768 0.0039763376 0.03467149 -0.0059310915
-0.029571628 -0.0065510185 -0.03581076 0.031902995 -0.037574373 -0.0680808 -0.07356784 0.026127437
0.020324737 -0.05212936 -0.056841128 -0.042054366 -0.0037540484 0.003270453 -0.071418196 -0.058244873
-0.0056121144 -0.018639592 0.034835074 0.041989375 -0.059167642 -0.0025516632 -0.0058321445 0.005725067
-0.04018637 0.044810634 -0.06781564 -0.052198797 0.031035146 -0.017383259 -0.009547215 0.018440388
-0.053229548 -0.060966775 -0.03916462 -0.024134219 -0.022719724 0.030189179 -0.06047767 -0.006637419
-0.044956457 0.056193043 0.047832083 -0.04795521 -0.031583548 -0.029948048 0.026869152 -0.026039623
-0.015356343 0.015929034 0.010250963 0.033907875 0.011412473 -0.052412525 -0.04416593 0.004256194
-0.036260936 0.015025094 -0.032496586 -0.041677456 -0.079438835 -0.0046956427 0.0149338925 -0.036581554
0.00084947475 0.04006248 -0.040253516 0.01252451 -0.034720592 -0.0030951148 0.044375334 -0.023625486
-0.01746605 -0.040681295 -0.054239687 -0.011474683 -0.024466012 -0.04643153 0.015694164 -0.060924083
00000000: ed22 1bbd 854d 68bd 39c7 20bd 0d0d 923c
00000010: 7eb3 dfbc fba6 d43c 319c d03c 74eb 1c3d
00000020: f768 19bd df33 c93c de3f 0d3c 427d af3b
00000030: 138e fa3c 6788 11bd be66 cdbc b199 cfbc
00000040: 5b2d 87bd e439 0ebd 1a70 38bd 2930 abbc
00000050: 83f3 a4bb 3009 0e3c e07b 5c3d d38b 453c
00000060: 1974 233d e56c 4d3d 465c b73c a41e 9cbc
00000070: 2ac4 223d 67ae 4dbd 0ed7 36bd 23d6 4ebd
00000080: 68e8 233c 143a 13bd 0732 80bc ce1c 16bd
00000090: 8802 dfbc 0a5b 523c 3069 82bd 35ba 91bb
000000a0: e67c 4ebd 9c2a 7c3c 5348 913c 3ff5 24bb
000000b0: a5c5 86bd bc19 49bc 2808 de3b c5ab 013d
000000c0: 7b4e 523d 3c60 413c df51 623d 20f6 32bc
000000d0: 28cc 9cbc d64d 22bd 8045 d43b 2fce 06bd
000000e0: 42bd e43c 1dd0 513c a038 183d 1fee bebc
000000f0: e842 43bc a2e5 63bc 51a6 e53c 9cbb 2bbc
00000100: 4c24 393d bcda e0bc e7a5 603c 0024 35bd
00000110: 660e 37bd 82c0 99bd e072 e939 e1a9 093c
00000120: 0c08 cb3c 6a68 01bd de76 48bd 0298 9dbb
00000130: f0b6 123d 7b8a 153d 8857 833b d8e3 72bd
00000140: 7143 73bd c2a0 5dbd 8b96 c7bc ad66 91bc
00000150: 85d4 553c 113f 94bd e3f7 08bd 6c46 a3bc
00000160: 2846 54bd 036a 663c 9427 ccbc f90f f83c
00000170: 10b0 433d e14a 4bbd 594e 54bc fdb7 80bb
00000180: 93d5 393d d371 e43c 801c 27bd ff01 413d
00000190: 4435 043d bcd4 27bc 4ddf 773b 9448 b6ba
000001a0: 11d4 49bc 0a30 13bd 79ca 0cbd e361 24bd
000001b0: b76f 61bd 833e d43c d594 a53c af58 96bd
000001c0: 0490 123d 0d62 0d3d 85d3 1ebd addc b33c
000001d0: dbc5 2bbd 5934 3dbd 5700 b23c 8098 4a3a
000001e0: 51c7 0a3d 214f 85bd e0e8 093d a8f5 103c
000001f0: ad60 f33b 9683 73bd e4da 64ba 95d8 71bd
00000200: 864c f3bc 43a3 86bd 1ad2 013d 9706 3fbd
00000210: cb4b bebc b5cb 3cbd c7c6 12bc 2f98 da3c
00000220: 3ed4 2fbd 8b1c a83c 96ee 843c 9a0e 51bd
00000230: 15ba 16bd c6c0 cd3c 038e 193c 105f 70bc
00000240: 76b9 f73a cc11 b3bc ac72 59bd 3846 24bd
00000250: f77a 6abd 57c2 34bc 6451 9cbc f7ed 79bd
00000260: 46fd 88bd 66e0 2b3d de7b e0bc 4979 af3a
00000270: 72a1 91bc 8017 eb3c 30b3 eb3c 3492 0f3d
00000280: 1ced a13b da90 05bd 2ad4 ccbc 8efa f03c
00000290: 002d d63a e376 e7bc f443 453c 1f6d 2b3d
000002a0: 1e9d ec3c a1c0 583d 2ce7 523c c9df 6bbd
000002b0: 9af0 34bd f04b 823b b103 0e3d 9a59 c2bb
000002c0: 3340 f2bc eda9 d6bb 4eae 12bd b7ac 023d
000002d0: 96e7 19bd f26d 8bbd bcaa 96bd 3509 d63c
000002e0: 1080 a63c 9985 55bd 3ed2 68bd 3341 2cbd
000002f0: 7b06 76bb 1955 563b b443 92bd 2d92 6ebd
00000300: d4e5 b7bb 0fb2 98bc 39af 0e3d 0dfd 2b3d
00000310: c559 72bd ce39 27bb 931b bfbb 5899 bb3b
00000320: 779a 24bd 5b8b 373d ede2 8abd 68ce 55bd
00000330: 6b3d fe3c 5667 8ebc ec6b 1cbc 4c10 973c
00000340: 3a07 5abd 4cb8 79bd 156b 20bd 20b5 c5bc
00000350: b71e babc 4c4f f73c 6fb7 77bd b57e d9bb
00000360: 4324 38bd ad2a 663d 93eb 433d af6c 44bd
00000370: c05d 01bd 9c55 f5bc b21c dc3c 0c51 d5bc
00000380: 2c99 7bbc 9b7d 823c a8f3 273c fce2 0a3d
00000390: 62fb 3a3c 84ae 56bd 56e7 34bd 8b77 8b3b
000003a0: 5986 14bd d02b 763c 241b 05bd fbb5 2abd
000003b0: d4b0 a2bd e8dd 99bb 49ad 743c 8ad6 15bd
000003c0: 49af 5e3a 8e18 243d dfe0 24bd 9a33 4d3c
000003d0: 2e37 0ebd 69d7 4abb e9c2 353d 3c8a c1bc
000003e0: f614 8fbc 6ea1 26bd 6f2a 5ebd 4f00 3cbc
000003f0: f26c c8bc fd2e 3ebd 0c91 803c 888b 79bd

3.bias f4 [64]
-0.055149276 -0.041459005 0.03309938 0.05250171 -0.020812295 -0.2147224 -0.15742847 0.01401726
-0.20901757 -0.16536395 -0.21903716 -0.04975208 -0.06860206 0.037068777 -0.03554868 -0.30905527
-0.06538682 -0.03215702 -0.30089688 -0.06115691 -0.09210675 -0.047849838 -0.04606283 -0.06405616
-0.5812944 -0.22283043 0.2914172 -0.20070925 -0.03506689 -0.13930993 -0.091650255 -0.027618537
-0.14390105 -0.06828132 0.8430514 0.0048764986 0.33522305 -0.030165248 -0.078741886 -0.15300088
-0.28246793 -0.19790803 -0.1894476 0.07763355 0.024549186 -0.19801542 0.02821965 -0.06650557
-0.27586812 -0.13176186 0.06061005 -0.0049610734 -0.32639748 -0.28434828 0.15690771 0.5832508
-0.12999633 -0.02555607 -0.114212796 -0.062674396 0.06567347 -0.35847294 -0.18452626 -0.12777096
00000000: 35e4 61bd ebd0 29bd 3793 073d 080c 573d
00000010: 8c7e aabc 30e0 5bbe ee34 21be a6a8 653c
00000020: b408 56be 2b55 29be 474b 60be d6c8 4bbd
00000030: 3d7f 8cbd 6ed5 173d 7e9b 11bd 7e3c 9ebe
00000040: 86e9 85bd 14b7 03bd 280f 9abe ab7f 7abd
00000050: 77a2 bcbd 31fe 43bd 61ac 3cbd e02f 83bd
00000060: b6cf 14bf a92d 64be a334 953e ba86 4dbe
00000070: 4da2 0fbd 43a7 0ebe 21b3 bbbd 4540 e2bc
00000080: cc5a 13be 14d7 8bbd 37d2 573f 09cb 9f3b
00000090: 5ba2 ab3e 1c1d f7bc 6d43 a1bd 43ac 1cbe
000000a0: a39f 90be 67a8 4abe 8dfe 41be 57fe 9e3d
000000b0: 601b c93c 8ec4 4abe e52c e73c 1334 88bd
000000c0: 963e 8dbe 95ec 06be 3e42 783d 8090 a2bb
000000d0: 921d a7be 1996 91be 6aac 203e ed4f 153f
000000e0: c21d 05be f75a d1bc 66e8 e9bd 6f5b 80bd
000000f0: d07f 863d c489 b7be 74f4 3cbe 64d6 02be

6.weight f4 [128, 64, 3, 3]
0.028495314 -0.008717059 -0.0074273054 -0.011096819 0.010736844 -0.006706666 -0.049841505 -0.06302618
-0.016480492 -0.5250974 -0.5642891 -0.25417414 -0.316792 0.08218559 0.41867805 0.0030489645
0.028254127 0.042949837 -0.6134746 -0.3465767 -0.13765827 -0.23834592 0.1754345 0.39056993
-0.17327563 -0.35677767 -0.12384729 -0.9026139 0.2578206 0.2094098 -1.0515587 0.18290626
0.08245733 -0.3177061 -0.18846953 -0.34662178 0.005598196 0.037758667 0.013651653 0.022641461
-0.022920148 -0.009285387 0.03668933 0.0083477 -0.018871628 0.302515 0.15756422 0.16995317
0.035253752 0.2975673 -0.19356716 -0.053973924 -0.08241017 0.11387041 -0.5003889 0.28988463
-0.17785643 0.10589483 -0.07283451 0.0761126 0.071841605 0.05626556 -0.16710919 0.036524903
0.0062256604 0.0369164 -0.040078413 0.009040553 0.034826737 -0.0004931353 -0.03653916 0.029484851
-0.08335838 0.2883574 0.13483937 0.08914548 0.3958507 -0.26640168 0.30218107 -0.40858197
-0.11095358 0.08312256 0.023374693 -0.15948479 -0.32880417 -0.02707661 0.14808244 -0.10398786
-0.11054776 -0.56339735 -0.06811889 0.14070044 0.21189448 -0.35345635 -0.21630456 0.27013117
0.057279415 0.059177544 -0.4458985 0.019622708 -0.041649394 0.12772816 -0.054817125 0.18437867
0.36791068 -0.025915796 -0.7927117 0.12215439 -0.012543994 0.008096921 0.0052493718 -0.018186515
-0.040474586 -0.012555655 0.003506571 -0.01171134 -0.03264542 -0.33407357 0.028733429 -0.12591465
-0.029576384 0.37641594 0.16028574 0.25708362 -0.1797268 -0.09545602 0.037876103 -0.013448875
0.010492474 -0.023684576 0.021578085 -0.01613141 0.004316848 -0.017500808 -0.014292454 0.17678201
-0.22462252 0.025000047 -0.13900377 0.27662796 0.21568282 -0.2232598 0.1758945 -0.59102225
0.13052258 -0.1040119 0.11671372 -0.35090625 -0.09382594 0.18361321 -0.2509581 0.06677232
-0.2515388 0.10724935 0.14084214 -0.16722819 -0.5365822 -0.1966705 0.4040366 -0.51378167
-0.24473125 -0.48134458 0.07447974 0.06253551 0.24609596 0.009111985 -0.60011864 0.07474573
-0.07103578 -0.3297489 -0.29559216 -0.7815498 0.033820838 0.12441077 0.16715884 -0.046550885
0.075027406 0.04526611 -0.12283078 0.10443363 -0.598381 -0.8344808 -0.39130095 -0.36204818
0.25127178 0.54476684 0.043879006 -0.01809123 0.0023063633 -0.025425604 0.0014520173 0.030442562
0.005172264 0.02489059 0.005411235 -0.02506648 -0.024990162 -0.02030839 -0.026070794 0.005923058
-0.0069222725 0.036493436 0.0055297366 0.02456358 0.018468121 -0.034295995 0.021471096 0.03268613
-0.033415757 0.03220663 0.03335473 -0.03671008 0.035629675 0.024575701 0.02889009 0.038167927
0.52395266 -0.3208368 -0.47140628 -0.15385017 0.5051027 0.4051635 0.1511551 0.14091459
-0.1792512 -0.73667926 0.17264427 0.37097317 -0.62189645 -0.36217022 0.28650516 -0.2513893
-0.5438471 -0.29074416 -0.43840316 -0.17167816 0.3025561 -0.14009446 -0.053073056 0.29627922
5.0255054e-05 -0.5435317 0.43857637 0.20556226 0.0937212 0.29758266 -0.051251687 0.04041152
0.3513442 -0.2829458 0.2632522 -0.1307841 0.024619821 0.0051401407 -0.036103837 0.027452927
00000000: 016f e93c ffd1 0ebc c160 f3bb 6fcf 35bc
00000010: 96e9 2f3c 98c3 dbbb 9b26 4cbd df13 81bd
00000020: 1902 87bc c96c 06bf 4075 10bf 1d23 82be
00000030: 9032 a2be eb50 a83d f85c d63e 23d1 473b
00000040: 3375 e73c 2bec 2f3d ac0c 1dbf 8072 b1be
00000050: 4af6 0cbe f410 74be 1aa5 333e c8f8 c73e
00000060: 2b6f 31be 90ab b6be a6a3 fdbd b411 67bf
00000070: 1001 843e 866f 563e 7a99 86bf c74b 3b3e
00000080: 63df a83d 60aa a2be 28fe 40be 6978 b1be
00000090: 1271 b73b d5a8 1a3d 2fab 5f3c 967a b93c
000000a0: 09c3 bbbc bc21 18bc 8d47 163d cbc4 083c
000000b0: ac98 9abc 3fe3 9a3e 8458 213e 3408 2e3e
000000c0: 3d66 103d be5a 983e 7836 46be c313 5dbd
000000d0: aac6 a8bd e434 e93d 7d19 00bf c26b 943e
000000e0: ff1f 36be 63df d83d 422a 95bd ece0 9b3d
000000f0: b121 933d b776 663d ac1e 2bbe 239b 153d
00000100: a000 cc3b a735 173d 4329 24bd d41e 143c
00000110: 7ba6 0e3d c045 01ba 16aa 15bd 378a f13c
00000120: ccb7 aabd 95a3 933e 5513 0a3e e891 b63d
00000130: f1ac ca3e cd65 88be 7ab7 9a3e a831 d1be
00000140: a13b e3bd 293c aa3d 497c bf3c fb4f 23be
00000150: 0559 a8be c4cf ddbc eca2 173e 96f7 d4bd
00000160: dd66 e2bd cf3a 10bf eb81 8bbd c713 103e
00000170: defa 583e 3bf8 b4be f17e 5dbe a24e 8a3e
00000180: d29d 6a3d 2764 723d cf4c e4be cdbf a03c
00000190: 8e98 2abd 2ccb 023e ec87 60bd c3cd 3c3e
000001a0: ca5e bc3e 5d4d d4bc 27ef 4abf 152c fa3d
000001b0: 5385 4dbc f3a8 043c ec02 ac3b e3fb 94bc
000001c0: aec8 25bd 3cb6 4dbc 80ce 653b ece0 3fbc
000001d0: 34b7 05bd b10b abbe 5e62 eb3c c5ef 00be
000001e0: 2c4a f2bc 97b9 c03e f221 243e 77a0 833e
000001f0: 4d0a 38be 727e c3bd f923 1b3d ac58 5cbc
00000200: a0e8 2b3c 2806 c2bc 86c4 b03c 0526 84bc
00000210: 5874 8d3b db5d 8fbc e62a 6abc 5806 353e
00000220: 7203 66be e6cc cc3c 0157 0ebe 2ea2 8d3e
00000230: f5db 5c3e 389e 64be b01d 343e 3c4d 17bf
00000240: b6a7 053e 3104 d5bd 9a07 ef3d fca9 b3be
00000250: d027 c0bd 1a05 3c3e 957d 80be edbf 883d
00000260: b2c9 80be 8ca5 db3d ec38 103e de3d 2bbe
00000270: 735d 09bf fe63 49be e3dd ce3e 3287 03bf
00000280: d49a 7abe cc72 f6be d588 983d 9e12 803d
00000290: 9400 7c3e 6f4a 153c 60a1 19bf 4a14 993d
000002a0: 357b 91bd d9d4 a8be db57 97be a613 48bf
000002b0: b887 0a3d 13cb fe3d b02b 2b3e 24ac 3ebd
000002c0: f8a7 993d f568 393d b48e fbbd 4de1 d53d
000002d0: 7f2f 19bf 89a0 55bf 9958 c8be 615e b9be
000002e0: b2a6 803e d775 0b3f 79ba 333d 0f34 94bc
000002f0: 5b26 173b 5b49 d0bc 9e51 be3a ae62 f93c
00000300: 187c a93b 5ae7 cb3c bb50 b13b 3858 cdbc
00000310: 2bb8 ccbc c85d a6bc 6b92 d5bc 3616 c23b
00000320: 3bd4 e2bb 247a 153d cb32 b53b 9039 c93c
00000330: 754a 973c f579 0cbd 27e4 af3c e4e1 053d
00000340: f6de 08bd 19eb 033d f89e 083d 4f5d 16bd
00000350: 6cf0 113d fb52 c93c e9aa ec3c f955 1c3d
00000360: c321 063f b944 a4be 2a5c f1be e68a 1dbe
00000370: 694e 013f 9771 cf3e 67c8 1a3e ea4b 103e
00000380: a08d 37be 0397 3cbf a9c9 303e 32f0 bd3e
00000390: 9b34 1fbf 606e b9be ceb0 923e 19b6 80be
000003a0: 9039 0bbf 6bdc 94be 6176 e0be 66cc 2fbe
000003b0: a2e8 9a3e ec74 0fbe 2263 59bd e9b1 973e
000003c0: f4c8 5238 e524 0bbf 158d e03e ea7e 523e
000003d0: e7f0 bf3d c15c 983e 4aed 51bd 8d86 253d
000003e0: 63e3 b33e 46de 90be fec8 863e 44ec 05be
000003f0: 82af c93c a06e a83b 9ee1 13bd f6e4 e03c

6.bias f4 [128]
-0.23435144 -0.28442198 -0.6398867 -0.6647627 -0.02843023 -0.1684828 -0.028065141 -0.070267014
-0.3314182 -0.07500724 -0.2861837 -0.00910998 0.033047855 -0.21856602 -0.34571952 -0.100736395
0.067781135 -0.3439243 -0.4322801 -0.30190694 -0.05259018 -0.25776345 -0.06624729 -0.18059906
-0.7477754 -0.6153209 -0.1723724 -0.16503796 -0.22096269 -0.10908624 -0.4308411 -0.11033535
-0.2568435 -0.22381622 -0.0468681 -0.023706816 -0.30919537 -0.30064175 -0.58982074 -0.42236012
-0.22472925 -0.5023486 -0.09468652 -0.1819656 -0.04097965 -0.65480727 -0.23782152 -0.057650063
-0.3810603 -0.13900696 -0.38330835 -0.18076313 -0.17964445 -0.3958706 -0.376547 -0.2668878
-0.30254245 -0.2667169 -0.18900663 -0.18165773 -0.610914 -0.37119868 -0.24464187 -0.04673813
-0.090989135 -0.06524923 -0.26093596 -0.06644828 -0.17026126 -0.014837042 -0.11022488 -0.034662575
-0.41643623 -0.5967988 -0.049543843 -0.099280626 -0.15080665 -0.05264578 -0.3056863 -0.5034931
-0.24404992 -0.050697424 -0.40089908 0.052547075 -0.21003422 -0.18826823 -0.10895203 -0.27387995
0.067629576 0.0888552 -0.22303128 -0.26667038 -0.48132175 -0.101523556 -0.44535458 -0.23776011
-0.1569772 -0.0091370335 -0.22458687 -0.44593963 -0.44552654 -0.19923025 -0.23998913 -0.019897914
-0.6268526 -0.5953753 -0.10888132 -0.09573633 -0.6988404 -0.20701869 -0.124108784 -0.19314891
-0.5125416 -0.012339144 -0.2186111 -0.056362282 -0.17927982 -0.09202984 -0.50266975 -0.13711782
-0.07291439 -0.03978967 -0.3987414 -0.3024716 -0.032662947 -0.3061413 -0.28175285 -0.06937278
00000000: d3f9 6fbe c29f 91be 9dcf 23bf e32d 2abf
00000010: 84e6 e8bc c186 2cbe dee8 e5bc 27e8 8fbd
00000020: a5af a9be 659d 99bd ac86 92be 0742 15bc
00000030: 305d 073d c5cf 5fbe 2602 b1be e24e cebd
00000040: d6d0 8a3d d916 b0be d153 ddbe 8c93 9abe
00000050: cd68 57bd 92f9 83be a9ac 87bd f6ee 38be
00000060: 356e 3fbf ac85 1dbf 6482 30be b6ff 28be
00000070: 0b44 62be 9b68 dfbd 3497 dcbe 80f7 e1bd
00000080: fe80 83be 1430 65be c4f8 3fbd cc34 c2bc
00000090: db4e 9ebe b7ed 99be 7efe 16bf 963f d8be
000000a0: 6d1f 66be eb99 00bf 02eb c1bd 3155 3abe
000000b0: 47da 27bd 73a1 27bf 7c87 73be 7922 6cbd
000000c0: 561a c3be d757 0ebe fe40 c4be f819 39be
000000d0: b7f4 37be 8daf cabe c5ca c0be 85a5 88be
000000e0: d8e6 9abe 1e8f 88be f48a 41be 7c04 3abe
000000f0: dc64 1cbf c10d bebe 6683 7abe 7b70 3fbd
00000100: 8358 babd 63a1 85bd 6699 85be 0916 88bd
00000110: f858 2ebe 1117 73bc 95bd e1bd 58fa 0dbd
00000120: 2137 d5be cec7 18bf 7cee 4abd a453 cbbd
00000130: 0f6d 1abe 1aa3 57bd ea82 9cbe ece4 00bf
00000140: 39e8 79be 1aa8 4fbd a542 cdbe 9a3b 573d
00000150: 3613 57be 63c9 40be 3e22 dfbd fe39 8cbe
00000160: 6081 8a3d b7f9 b53d 5062 64be 0589 88be
00000170: ce6f f6be 95eb cfbd 8405 e4be 6377 73be
00000180: a2be 20be 7fb3 15bc 1afa 65be 3352 e4be
00000190: 0e1c e4be 0403 4cbe b6bf 75be f300 a3bc
000001a0: 6979 20bf 846a 18bf 2bfd debd 6911 c4bd
000001b0: 34e7 32bf b5fc 53be bf2c febd d4c8 45be
000001c0: ed35 03bf 1f2a 4abc 97db 5fbe 23dc 66bd
000001d0: 2195 37be 247a bcbd f7ae 00bf 9d68 0cbe
000001e0: 2454 95bd 7efa 22bd d527 ccbe 8fdd 9abe
000001f0: 95c9 05bd 8dbe 9cbe e941 90be 5113 8ebd

11.weight f4 [128, 512]
-0.23991989 -0.24389401 -0.14112496 -0.21470535 0.02374866 0.06365513 -0.51611423 0.14034675
0.18845487 0.16346827 0.25663614 -0.3436016 0.1127059 0.05758592 0.005802347 0.180442
-0.26494634 0.1714438 0.14052263 0.21437328 -0.6697977 0.061605155 -0.4500832 0.009159081
0.034850042 -0.382313 0.21430536 -0.39332208 -0.24587487 -0.3066879 0.2072955 -0.34486067
-0.4873368 -0.09536909 -0.18734765 -0.055966917 0.012223116 -0.036552344 0.074310064 0.041375905
0.16707128 -0.2159524 -0.024883542 -0.3330894 -1.0633271 -0.20090894 -0.22134057 -0.3820384
0.38665855 0.02409242 -0.012552622 -0.209898 -0.098304845 -0.106420346 -0.20286298 -0.32889742
-0.14045365 -0.101982154 0.037333675 0.2605686 -0.47639087 0.30920628 0.057389602 -0.15517546
-0.27920377 -0.14593984 -0.0631277 -0.71798515 0.044561494 0.48587298 0.05138663 0.20402664
-0.089742705 0.1272974 0.29352015 0.045540504 -0.030731803 0.38883716 -0.14866321 -0.20743316
-0.0026195755 -0.00042451895 -0.047016513 -0.04901507 0.089127384 -0.3685712 0.02708897 -0.105669126
-0.3955884 0.05905763 -0.03816412 0.16567077 0.0664816 -0.014012984 0.22865129 0.08334997
-0.047876734 -0.50772697 -0.26300317 0.06694509 0.21318603 0.52140576 0.5714271 0.3323029
-0.21273042 -0.33693385 0.43412763 0.025801662 -0.06575224 0.11473689 0.04293554 0.21046622
0.30953416 0.30871537 0.23496956 0.03561211 0.18870685 0.09479477 0.5777867 0.6316455
-0.19715312 -0.16061251 -0.048860107 0.12605534 -0.29646072 0.26734686 -0.18718609 0.23676372
-0.28945222 0.0054905056 0.10276473 -0.010552053 -0.091108285 0.16128473 0.0070261513 0.28280208
-0.006933134 -0.0043536364 -0.028082902 0.0031041396 -0.35196334 -0.39439175 0.09746499 0.023541596
-0.32612684 0.10998864 0.44849664 0.109042265 0.05432274 -0.1078515 0.13101043 -0.1674086
0.4815712 0.12511505 0.19021031 0.49839908 0.0004952855 0.31223145 -0.08136466 -0.049964022
-0.18933381 -0.21862625 0.054309044 0.1897867 0.19596052 -0.12148075 0.22314838 0.048403423
-0.042186826 0.3807968 0.2123144 -0.16605802 0.33531758 0.2708277 0.2148412 0.23359966
-0.521957 -0.31266037 -0.8418098 -0.3184052 -0.0008933262 0.37570074 0.06717468 0.37111482
0.3117453 0.10255341 -0.49272406 -0.32843137 -0.021464977 0.057175186 -0.03875087 0.05636488
0.22564238 0.43479705 -0.022384778 0.093278594 -0.44357315 -0.2837115 -0.5142231 -0.37901482
0.04497378 0.13541108 0.17585017 0.08742691 -0.4881968 -0.4788563 -0.31387123 -0.18059558
-0.32366034 -0.2821975 0.04124015 -0.6910737 0.19277586 -0.21820667 -0.009453768 -0.14543673
0.21840204 -0.047012366 -0.23518737 -0.10986649 -0.5846453 -0.017229892 -0.04088486 0.10220543
-0.52132285 0.19622333 0.045458347 0.23183644 0.26852387 0.26880434 -0.43842348 -0.22577193
0.41955107 -0.14371675 -0.005839303 0.22947374 -0.042171102 -0.3027 0.092982136 -0.34613734
0.0775601 0.1069285 -0.15503728 0.19234324 -0.012757102 -0.077658944 0.21338142 -0.20787862
-0.034979664 -0.06618782 0.109831 0.042945925 0.019219171 0.00016656029 0.008857763 -0.03346938
00000000: 8fad 75be 5abf 79be 1083 10be b8db 5bbe
00000010: 8d8c c23c 9f5d 823d 1020 04bf 0fb7 0f3e
00000020: 50fa 403e 3a64 273e d065 833e 8dec afbe
00000030: 5ad2 e63d 37df 6b3d 9d21 be3b cac5 383e
00000040: 0ca7 87be f78e 2f3e 2ae5 0f3e ab84 5b3e
00000050: dd77 2bbf b055 7c3d 4e71 e6be f80f 163c
00000060: ebbe 0e3d 88be c3be dd72 5b3e 8361 c9be
00000070: 9fc6 7bbe 3206 9dbe 4645 543e 9491 b0be
00000080: 3684 f9be df50 c3bd 10d8 3fbe 913d 65bd
00000090: 7743 483c e9b7 15bd e02f 983d c879 293d
000000a0: bc14 2b3e a022 5dbe 92d8 cbbc b28a aabe
000000b0: 1a1b 88bf 13bb 4dbe 1aa7 62be 8a9a c3be
000000c0: 1cf8 c53e 775d c53c 83a9 4dbc 80ef 56be
000000d0: 0d54 c9bd e9f2 d9bd 50bb 4fbe 3e65 a8be
000000e0: 15d3 0fbe 05dc d0bd 32eb 183d 3f69 853e
000000f0: 81e9 f3be 4950 9e3e 5c11 6b3d 51e6 1ebe
00000100: ccf3 8ebe 4171 15be 1849 81bd e0cd 37bf
00000110: 1d86 363d 58c4 f83e c97a 523d 5cec 503e
00000120: 06cb b7bd 405a 023e 4648 963e ae88 3a3d
00000130: 43c1 fbbc aa15 c73e 2b3b 18be 5c69 54be
00000140: 2fad 2bbb f891 deb9 6394 40bd 07c4 48bd
00000150: 6b88 b63d 5db5 bcbe b0e9 dd3c 0e69 d8bd
00000160: 908a cabe 6ae6 713d fb51 1cbd 99a5 293e
00000170: 8127 883d b796 65bc 9023 6a3e 64b3 aa3d
00000180: 651a 44bd 65fa 01bf 5aa8 86be 821a 893d
00000190: 704d 5a3e d97a 053f 0c49 123f 9b23 aa3e
000001a0: 01d6 59be 9882 acbe fa45 de3e 025e d33c
000001b0: 1ca9 86bd 2dfb ea3d 2ddd 2f3d 7584 573e
000001c0: 437b 9e3e f10f 9e3e dc9b 703e 01de 113d
000001d0: 5e3c 413e c323 c23d d4e9 133f 85b3 213f
000001e0: 82e2 49be 9b77 24be 8921 48bd a714 013e
000001f0: b3c9 97be b0e1 883e b6ad 3fbe 3072 723e
00000200: 1533 94be b3e9 b33b 5176 d23d 85e2 2cbc
00000210: fb96 babd d327 253e a13b e63b 6fcb 903e
00000220: 582f e3bb f3a8 8ebb 1d0e e6bc d26e 4b3b
00000230: 8a34 b4be b7ed c9be ba9b c73d 4eda c03c
00000240: 19fa a6be b941 e13d 5aa1 e53e 8d51 df3d
00000250: 8581 5e3d 3fe1 dcbd 9927 063e 296d 2bbe
00000260: 8090 f63e 291e 003e 7ec6 423e 2a2e ff3e
00000270: 0cd6 013a cddc 9f3e 84a2 a6bd 13a7 4cbd
00000280: b9e0 41be 8fdf 5fbe 2973 5e3d 7257 423e
00000290: e0a9 483e e6ca f8bd 0281 643e ab42 463d
000002a0: 18cc 2cbd ccf7 c23e f268 593e 1d0b 2abe
000002b0: bfae ab3e eea9 8a3e 55ff 5b3e c034 6f3e
000002c0: f99e 05bf 0515 a0be d980 57bf 0206 a3be
000002d0: 1b2e 6aba d95b c03e e192 893d c302 be3e
000002e0: 149d 9f3e 8607 d23d 5446 fcbe 2828 a8be
000002f0: 52d7 afbc 8730 6a3d 3bb9 1ebd dcde 663d
00000300: cc0e 673e b89d de3e 4860 b7bc d908 bf3d
00000310: 051c e3be a242 91be 20a4 03bf 3b0e c2be
00000320: 6d36 383d 34a9 0a3e 1112 343e e10c b33d
00000330: eef4 f9be a72c f5be bbb3 a0be 0cee 38be
00000340: cfb6 a5be 317c 90be 6eeb 283d 35ea 30bf
00000350: 0967 453e 9271 5fbe fae3 1abc 5eed 14be
00000360: c9a4 5f3e 0a90 40bd f5d4 70be af01 e1bd
00000370: 50ab 15bf b425 8dbc e276 27bd 1551 d13d
00000380: 6a75 05bf c5ee 483e 8832 3a3d 8866 6d3e
00000390: f67b 893e b9a0 893e 0b79 e0be c230 67be
000003a0: 66cf d63e 7c2a 13be a057 bfbb 2afb 6a3e
000003b0: 9bbb 2cbd 7ffb 9abe 6b6d be3d ea38 b1be
000003c0: d4d7 9e3d 54fd da3d 18c2 1ebe a0f5 443e
000003d0: 2a03 51bc a70b 9fbd a980 5a3e 22de 54be
000003e0: d646 0fbd 7b8d 87bd 13ef e03d 11e8 2f3d
000003f0: 8671 9d3c b0a6 2e39 2720 113c 3017 09bd

11.bias f4 [128]
0.31814384 -0.17598934 -0.22636431 -0.012341744 -0.44564202 -0.42472833 0.47638503 0.20617399
-0.024484629 -0.07023054 -0.17625645 -0.08105912 -0.08304296 -0.054536946 -0.01617602 0.28006706
0.19085506 -0.09451996 -0.04023964 -0.010180635 -0.06276966 0.21211375 0.074877255 -0.026163828
0.071270324 -0.05348061 0.09672597 -0.01906302 -0.011109764 0.13555148 -0.15716162 -0.002175356
0.27063882 -0.123332545 0.15570828 0.052051317 -0.17725748 -0.023471361 0.22707763 0.23521839
-0.031318244 -0.13503076 -0.06705464 0.26747817 0.13598882 -0.06448776 -0.012764817 -0.1257776
0.13109444 0.13631772 0.1344096 -0.051167592 -0.028358119 -0.038648933 0.14497238 -0.28533855
0.035771325 -0.034243964 0.2740994 0.27079573 0.021327293 -0.22583535 -0.12382042 0.2782642
-0.20059438 -0.23897357 -0.03920599 -0.06704381 0.13557106 -0.03874589 -0.16858049 -0.0034420283
-0.037367165 -0.026050935 -0.099579394 -0.0781207 0.08761875 0.004898189 0.27179974 -0.10247149
-0.12068337 -0.036621727 -0.08425539 0.2112034 -0.20588398 0.4537131 0.08227223 -0.008156151
0.30818653 -0.034566402 0.009953102 -0.07181042 -0.16581668 0.40131167 -0.07961512 0.41803938
-0.0018773107 -0.02452708 -0.0074255723 -0.006781826 0.21194178 -0.08530183 0.37969935 0.5654887
-0.42594433 -0.26919582 -0.010127854 0.04171989 0.27470374 0.26251113 0.1999063 0.1477928
-0.19008061 0.35056904 -0.15809499 0.2503563 0.11515796 -0.08782667 -0.29297057 0.14647497
0.08782922 0.10529192 -0.052414436 0.019134864 0.5981928 -0.04248436 -0.156349 -0.20820689
00000000: c0e3 a23e 8d36 34be 0ccc 67be 0735 4abc
00000010: 312b e4be fe75 d9be bde8 f33e 461f 533e
00000020: fd93 c8bc 08d5 8fbd 927c 34be 5302 a6bd
00000030: 6d12 aabd 2262 5fbd 9383 84bc f364 8f3e
00000040: 826f 433e ae93 c1bd 52d2 24bd aecc 26bc
00000050: 618d 80bd 5934 593e 3f59 993d 8655 d6bc
00000060: 2df6 913d 7c0e 5bbd 4418 c63d 0d2a 9cbc
00000070: ba05 36bc 02ce 0a3e faee 20be 6b90 0ebb
00000080: 2c91 8a3e c695 fcbd fe71 1f3e c333 553d
00000090: fc82 35be 0347 c0bc 0a87 683e 17dd 703e
000000a0: 8f47 00bd 8145 0abe f153 89bd e6f2 883e
000000b0: a740 0b3e 2912 84bd 8623 51bc d8cb 00be
000000c0: 9f3d 063e df96 0b3e aca2 093e 1c95 51bd
000000d0: 494f e8bc 584e 1ebd a473 143e e517 92be
000000e0: f484 123d 6643 0cbd c256 8c3e bda5 8a3e
000000f0: 93b6 ae3c 6241 67be 8f95 fdbd a578 8e3e
00000100: 9d68 4dbe 7db5 74be 7696 20bd 444e 89bd
00000110: 24d3 0a3e 03b4 1ebd 5da0 2cbe a793 61bb
00000120: 500e 19bd c568 d5bc 48f0 cbbd bffd 9fbd
00000130: 7671 b33d fd80 a03b 5629 8b3e 93dc d1bd
00000140: d828 f7bd aa00 16bd 178e acbd b445 583e
00000150: 40d3 52be 154d e83e 587e a83d 60a1 05bc
00000160: a0ca 9d3e 8095 0dbd 5612 233c 5711 93bd
00000170: d9cb 29be b978 cd3e 410d a3bd 4209 d63e
00000180: 1810 f6ba 04ed c8bc 3752 f3bb 143a debb
00000190: 4407 593e bab2 aebd f467 c23e dec3 103f
000001a0: 6015 dabe 09d4 89be 4cef 25bc 7ae2 2a3d
000001b0: f8a5 8c3e dc67 863e 3db4 4c3e ff56 173e
000001c0: 7ea4 42be c97d b33e a7e3 21be b32e 803e
000001d0: f0d7 eb3d 78de b3bd 3d00 96be 89fd 153e
000001e0: cedf b33d 4aa3 d73d 85b0 56bd b8c0 9c3c
000001f0: 2a23 193f 1504 2ebd f419 20be 3034 55be

14.weight f4 [48, 128]
0.056116123 -0.2825064 -0.25537473 0.15300725 -0.31729865 0.32646823 0.1319503 0.012271658
-0.067704886 0.012129158 0.22424164 -0.13592559 0.057170272 0.06621036 0.078306116 -0.0095521305
0.10604001 0.12021287 -0.55530035 0.046402104 0.021478109 0.26638916 0.17517602 -0.052858904
-0.38535702 0.006118977 -0.040166177 -0.16136709 -0.042156838 0.0632935 -0.07219165 0.08147643
0.1437471 -0.07404583 -0.27777687 -0.09964288 -0.37404874 -0.082096405 -0.09857262 -0.17817688
-0.049825445 -0.028098302 -0.034673776 -0.48544872 -0.47318447 -0.053558525 0.10926876 0.015012533
0.21366116 0.24920425 0.14078781 -0.17030494 0.29142135 -0.015333939 0.11328918 -0.13160436
-0.32289022 -0.30058786 0.31827813 -0.023585299 0.04682166 -0.38636503 -0.10046341 -0.44166368
-0.27036667 -0.34593374 -0.26753238 0.28874466 0.19452791 0.08182299 0.05367309 -0.0523241
-0.46931168 -0.026277684 0.3361832 0.08303477 -0.058962822 0.124926984 0.25179473 -0.25165054
0.36033607 -0.51253873 0.07253421 0.31806356 -0.08583255 -0.29302627 0.168995 0.007192349
-0.26516724 -0.07074533 0.308431 0.06357144 -0.41750702 -0.27702394 -0.415665 0.25031313
0.10937421 -0.4106077 0.019985676 -0.078816555 0.0062761568 0.0064728656 0.07278568 0.11573376
0.25842047 0.24136665 0.07117449 -0.27139822 -0.08807276 -0.036573227 0.18993014 0.03922063
-0.2966063 0.28425205 0.21823063 -0.2685235 -0.32958305 0.11194062 -0.2827276 0.043770663
-0.5951577 -0.52367926 0.044719804 -0.08527622 -0.43621123 0.027568055 0.08352434 -0.28378952
-0.17113797 -0.085904635 -0.6642751 0.23053107 0.011035501 0.16764352 -0.28131676 -0.49724793
-0.011180085 -0.081647746 -0.026498917 -0.27051103 0.05754794 -0.00067730993 0.07093861 -0.039544728
0.33143312 0.1723099 0.19545959 -0.036094278 0.048256956 0.12315261 0.15832505 0.016389407
-0.06586477 0.011190534 -0.43932328 -0.71368647 -0.011466991 -0.9168657 0.051127806 -0.032882124
0.13341217 -0.6004997 0.32532015 0.03892544 -0.1645013 0.017414724 -0.16804878 0.26823735
-0.074713714 -0.057729807 -0.07843357 -0.005150235 0.18685679 0.033900067 0.45526195 -0.030480672
-0.2984138 0.35826376 -0.04525329 0.19836472 -0.37310067 0.014539125 0.1172117 -0.43248895
-0.24703978 -0.15216564 0.14541832 -0.3014476 -0.3222128 -0.10414957 -0.18048784 0.20639025
0.007322396 -0.3051756 0.04692548 -0.20186387 0.036275294 0.026046958 -0.5740619 0.033486255
0.070102945 -0.05971227 -0.0704231 -0.0851889 0.49468789 -0.12781012 -0.2162528 0.2872053
-0.092809565 -0.4893564 0.14637707 -0.14380297 0.16676505 -0.17599452 0.049479425 -0.044255182
0.21097286 0.02370594 -0.4799172 -0.08338602 -0.22975437 -0.5692757 -0.3868109 0.0025921876
-0.28803685 0.33973402 -0.0741008 -0.05679995 -0.087266535 0.069992565 -0.20582733 0.10891669
0.27774125 0.28211147 -0.06009645 0.14555894 0.21584897 -0.24602357 0.11967586 -0.5209511
-0.18542197 0.258003 0.14415137 0.18665446 0.25630355 -0.050126415 -0.19400054 -0.05055047
0.13264889 -0.1861869 -0.07920796 -0.046491556 -0.43816042 -0.027339078 -0.009385219 -0.07340532
00000000: 05da 653d aea4 90be 7ac0 82be efad 1c3e
00000010: f874 a2be d826 a73e fb1d 073e 100f 493c
00000020: dca8 8abd 60b9 463c 9a9f 653e 1430 0bbe
00000030: 602b 6a3d 4c99 873d f55e a03d 8a80 1cbc
00000040: 812b d93d 2a32 f63d 2a28 0ebf 2210 3e3d
00000050: dcf2 af3c 2964 883e 5861 333e 9482 58bd
00000060: 844d c5be b381 c83b 4a85 24bd 6a3d 25be
00000070: a6ac 2cbd 06a0 813d 37d9 93bd 1ddd a63d
00000080: 7132 133e 57a5 97bd c538 8ebe 9111 ccbd
00000090: 5183 bfbe 2922 a8bd 71e0 c9bd 0074 36be
000000a0: c415 4cbd 692e e6bc 1706 0ebd bc8c f8be
000000b0: 3c45 f2be 2f60 5bbd 4dc8 df3d 21f7 753c
000000c0: fec9 5a3e 662f 7f3e ae2a 103e 6b64 2ebe
000000d0: 2e35 953e 343b 7bbc 2804 e83d 4bc3 06be
000000e0: de51 a5be a7e6 99be 5af5 a23e f535 c1bc
000000f0: 12c8 3f3d a3d1 c5be c3bf cdbd be21 e2be
00000100: 806d 8abe 3a1e b1be 01fa 88be 57d6 933e
00000110: 5332 473e d092 a73d 50d8 5b3d cc51 56bd
00000120: 9f49 f0be 4c44 d7bc 3420 ac3e 220e aa3d
00000130: 0083 71bd b8d9 ff3d 3deb 803e 57d8 80be
00000140: f87d b83e bd35 03bf d18c 943d 3ad9 a23e
00000150: fac8 afbd 8a07 96be 060d 2d3e ccad eb3b
00000160: 00c4 87be ede2 90bd abea 9d3e be31 823d
00000170: 7bc3 d5be 15d6 8dbe 0bd2 d4be 0b29 803e
00000180: 96ff df3d 2c3b d2be 00b9 a33c 936a a1bd
00000190: 38a8 cd3b 551a d43b a910 953d d205 ed3d
000001a0: b04f 843e d228 773e eec3 913d b5f4 8abe
000001b0: 7e5f b4bd cfcd 15bd 0c7d 423e d0a5 203d
000001c0: c8dc 97be 7c89 913e da77 5f3e ea7b 89be
000001d0: 1cbf a8be 2041 e53d acc1 90be de48 333d
000001e0: 415c 18bf d80f 06bf 1d2c 373d 4da5 aebd
000001f0: 1457 dfbe 67d6 e13c cf0e ab3d dc4c 91be
00000200: cb3e 2fbe c5ee afbd ef0d 2abf 5610 6c3e
00000210: 3fce 343c beaa 2b3e c008 90be 4897 febe
00000220: ad2c 37bc ef36 a7bd 4214 d9bc 6c80 8abe
00000230: 64b7 6b3d 808d 31ba 4348 913d a7f9 21bd
00000240: 9ab1 a93e 0272 303e 8f26 483e 98d7 13bd
00000250: 16a9 453d 7037 fc3d f61f 223e 1443 863c
00000260: 1ce4 86bd 8058 373c fbee e0be 28b4 36bf
00000270: 0ce0 3bbc b6b7 6abf 646b 513d 68af 06bd
00000280: 339d 083e 59ba 19bf 5d90 a63e 4870 1f3d
00000290: 0773 28be 53a9 8e3c fb14 2cbe 6856 893e
000002a0: 8103 99bd 1776 6cbd c8a1 a0bd 4dc3 a8bb
000002b0: 6357 3f3e ccda 0a3d 1818 e93e 9ab2 f9bc
000002c0: b2c9 98be 596e b73e 845b 39bd 1f20 4b3e
000002d0: 0d07 bfbe 8335 6e3c b00c f03d 316f ddbe
000002e0: fff7 7cbe 4fd1 1bbe 8ae8 143e 5757 9abe
000002f0: 13f9 a4be 5f4c d5bd ced1 38be f757 533e
00000300: b6f0 ef3b fa3f 9cbe ef34 403d 67b5 4ebe
00000310: 6795 143d 6e60 d53c b8f5 12bf e228 093d
00000320: 2292 8f3d da94 74bd fc39 90bd 8577 aebd
00000330: bb47 fd3e a8e0 02be 6071 5dbe 930c 933e
00000340: f112 bebd ec8c fabe dfe3 153e 1641 13be
00000350: 75c4 2a3e e837 34be f0aa 4a3d ec44 35bd
00000360: 4509 583e f632 c23c b5b7 f5be 4ac6 aabd
00000370: bb44 6bbe 0dbc 11bf 140c c6be b1e1 293b
00000380: 9179 93be 9ef1 ad3e 29c2 97bd 10a7 68bd
00000390: ccb8 b2bd 4358 8f3d 66c4 52be b70f df3d
000003a0: 1a34 8e3e ea70 903e b227 76bd 670d 153e
000003b0: 8307 5d3e 9aed 7bbe 9e18 f53d 0d5d 05bf
000003c0: 42df 3dbe f818 843e 6b9c 133e 5922 3f3e
000003d0: 383a 833e 5b51 4dbd 14a8 46be 020e 4fbd
000003e0: 1cd5 073e c7a7 3ebe c837 a2bd ee6d 3ebd
000003f0: 9056 e0be 34f6 dfbc 76c4 19bc 8755 96bd

14.bias f4 [48]
-0.24382734 0.3352106 0.17061758 -0.17770466 -0.09135349 0.20798387 0.0671165 0.046061296
0.11011809 0.2368876 -0.250268 0.3752894 0.020946164 0.011824279 0.059248216 0.26963228
0.1402416 -0.0841221 -0.047875714 -0.013284064 -0.20439966 0.32173645 -0.038432866 0.13884574
-0.084170006 -0.9721865 -0.46619484 0.11567927 -0.22857518 0.45253173 -0.31829903 -0.044779804
-0.0908036 0.16782095 0.22883767 0.028478673 -0.012460784 0.0043228506 0.023464873 0.023728592
-0.15558851 -0.08245544 0.03566509 -0.0124013955 -0.14821395 0.33067295 0.10905711 -0.26763982
00000000: e0ad 79be b9a0 ab3e 60b6 2e3e 36f8 35be
00000010: 8a17 bbbd b9f9 543e 6074 893d c5aa 3c3d
00000020: 9885 e13d aa92 723e 2123 80be ef25 c03e
00000030: 4a97 ab3c 9fba 413c 42ae 723d 3e0d 8a3e
00000040: 7e9b 0f3e 3548 acbd 5319 44bd 67a5 59bc
00000050: 254e 51be a4ba a43e c86b 1dbd 942d 0e3e
00000060: 5361 acbd 37e1 78bf 17b1 eebe 41e9 ec3d
00000070: 9d0f 6abe 3db2 e73e 17f8 a2be 076b 37bd
00000080: 3df7 b9bd 41d9 2b3e 6c54 6a3e 1b4c e93c
00000090: 5128 4cbc b3a6 8d3b 6839 c03c 7762 c23c
000000a0: 9852 1fbe 66de a8bd 8f15 123d 392f 4bbc
000000b0: 66c5 17be f74d a93e 5659 df3d 1608 89be
